hw1/best_weight.npy (npy, 1432 bytes, 1 tensors)

array f8 [163, 1]
0.13416731617110028 0.372906047692468 0.27504681398534203 -0.07530429036979008 -0.5160921647108493 0.012552093336059202 -0.0634788075863618 -0.10229072269571042
-0.2427261630123651 -0.17096005359656985 0.19113074316272874 -0.036991863765042717 -0.23589731314029785 0.1796092427163846 0.03671440994641701 -0.1386607413962052
0.11373571460640716 -0.014053649181693668 0.5601445011896667 0.37615734584155314 0.0028732517805659954 -0.08133293282871086 -0.32746332195714495 -0.3313891814881913
0.06860652930417725 -0.5116833059803616 1.7782756707774396 -0.18489366602308258 -0.46133935119717795 -0.30447838923082343 0.21068030691804948 0.16525002980476977
-0.18980067885984517 -0.0006022507121530359 -0.6330316790452382 0.31160192498644906 -0.06612375492316591 -0.183223611328595 0.18674836745038947 -0.13163629122799692
0.146567992514595 0.07175214695384756 -0.046114792264815345 0.5474371758242063 -0.9748868294730922 -0.45357812178933143 0.27379890164340726 0.11111974090464598
-0.18910398686098176 0.007041172094406061 0.029947599950304743 -0.1709248020807041 -0.5003808680655807 0.6607526999801203 -0.2897099782945928 0.1301222402299746
0.19681062558102536 -0.20271987891107693 0.10677104375157888 0.10011776995302576 -0.17589532725090742 -0.06601336338480297 0.10687246232612005 -0.24850785660352856
-0.008387356037573207 0.02046552987090683 0.003869056550883975 -0.06188724708059299 0.06209792242698263 -0.4919850758615638 -0.8394083190764938 1.4243081284637875
-0.10225624341599782 0.07260497556478357 0.10618697761866691 0.11969257557704639 0.1161089246184168 -0.05800504970293492 -0.26586243036766677 -0.10272685654220617
0.3636483962334902 0.06016810174974218 0.11662828104365129 -0.12409461623349768 -0.01481738360961541 -0.18170611604141063 0.7183346407470205 -1.2162302491592223
1.9712177430986448 8.828530209458746 0.16298360621511546 -0.0641261673110615 0.07437397937256446 -0.06306590876075287 0.009244931557127918 0.04268539240621063
-0.003001658746253048 -0.006859758363738322 -0.1768226457482944 -0.021986457931882024 0.01793996594125026 0.15301010160968173 -0.07444472477284372 0.37403664026231187
-0.5358318012262046 -0.365992371704542 0.28845487591581126 -0.33909562572504576 0.1868330419625487 -0.08111983303366266 -0.10543508030448757 0.08977257141704056
-0.20885455630784142 -0.008828446590384653 0.027454606615638606 -0.24835074396257725 0.29082622527190133 0.32957290781218895 -0.28050925498837276 0.19446206075831635
0.3191599210239374 -0.2866612130837896 -0.03839574671326073 0.36957036316359776 -0.08141606197090892 0.054844977767644784 -0.03844809465402276 -0.014573835247690337
0.1299664930522708 -0.04336853581400118 0.10671824226635931 -0.17485165329748031 0.12209951391923438 0.1231379472167233 0.04840612818813381 0.06474576860890809
0.025263190184484606 -0.09387499553102423 0.058896936200067425 -0.01002398336277683 -0.08117861716712549 -0.07179430283404017 -0.16054498769926 0.15441738477097622
-0.07724605991678475 0.047688172870455674 -0.12138539644923155 -0.026741145513416272 -0.0959105605808287 0.03483063256422842 -6.391101539563745e-05 0.2178681451915705
-0.4800008149645964 -0.013394797233338751 -0.0598471899768196 0.04812861981308943 0.09573008934174422 0.02286040808328276 -0.10838277372410733 -0.037789985932833704
0.22990150375506307 0.06347211110878993 18.178358058049103
00000000: d6cf 9205 652c c13f 0d77 d453 b1dd d73f
00000010: 12e8 bbf3 5d9a d13f 2401 6358 2447 b3bf
00000020: 4bf5 24b7 d383 e0bf f469 ff72 e9b4 893f
00000030: 678f 92aa 2540 b0bf 438b a98c b92f babf
00000040: 2ec6 02a2 a611 cfbf 8051 8fdf 04e2 c5bf
00000050: b971 92e1 f876 c83f 518a 2dfa 98f0 a2bf
00000060: d56f 9316 e231 cebf 755a c387 6ffd c63f
00000070: 690a 062c 3bcc a23f 9495 c49a a2bf c1bf
00000080: 4628 9fa6 c81d bd3f a4a7 ffdc 28c8 8cbf
00000090: 6f9a 3429 b4ec e13f 5689 a242 f612 d83f
000000a0: 4355 c84d a589 673f bd4a 962e 3cd2 b4bf
000000b0: 5b82 9cb8 28f5 d4bf 005c 2ff8 7a35 d5bf
000000c0: 3b4c a78f 3290 b13f b808 23ab b55f e0bf
000000d0: 602f 9430 d173 fc3f 7d41 677c 98aa c7bf
000000e0: b4fb 6f7c 9586 ddbf 0573 05ed 927c d3bf
000000f0: ebe7 0f82 92f7 ca3f 6456 d6b8 e926 c53f
00000100: cf16 3b7e 634b c8bf 3aa0 6c8e 0bbc 43bf
00000110: bc99 daa6 cb41 e4bf 15ff 4b33 49f1 d33f
00000120: 403b e284 7ced b0bf 4873 410d df73 c7bf
00000130: b4f1 63d9 5ee7 c73f c83e e53e 75d9 c0bf
00000140: 9eca 3e6f bdc2 c23f cfa5 9544 595e b23f
00000150: 4747 47a9 5b9c a7bf 38f2 d8f7 9a84 e13f
00000160: fd6a 3cdd 4532 efbf ca0a d187 6c07 ddbf
00000170: 504e 0fd4 eb85 d13f 5b1d 20e5 5772 bc3f
00000180: 8539 8e37 8f34 c8bf ac8a ef3d 34d7 7c3f
00000190: 4860 8569 95aa 9e3f d685 8129 dde0 c5bf
000001a0: 2558 fcbc 1e03 e0bf ee10 a5d8 e224 e53f
000001b0: ca68 86b8 9b8a d2bf 3e8f 2277 d8a7 c03f
000001c0: 601a 3030 1731 c93f 3109 1699 b9f2 c9bf
000001d0: 19a4 12dd 5855 bb3f be5a b273 51a1 b93f
000001e0: 31eb 07f3 bc83 c6bf 7d31 d674 40e6 b0bf
000001f0: 1a9f 8862 fe5b bb3f 9fa2 74fe 1acf cfbf
00000200: 30df 0cdf 632d 81bf f0a2 f675 eaf4 943f
00000210: e508 47eb ffb1 6f3f 0d51 806c afaf afbf
00000220: 1e66 f283 4ccb af3f 0083 bcf8 ae7c dfbf
00000230: 6090 cdd5 6edc eabf eadc f251 f7c9 f63f
00000240: 2895 4815 772d babf 34df 935b 3d96 b23f
00000250: 381d 22dc 112f bb3f 916b ad31 2ca4 be3f
00000260: 2f84 0282 50b9 bd3f 1a34 f47e d6b2 adbf
00000270: 5a82 eada e303 d1bf 6208 45a9 4e4c babf
00000280: 4434 44ec 0346 d73f 1f1a 8e7a 5ace ae3f
00000290: 9705 dfdc 59db bd3f 8e21 552e aac4 bfbf
000002a0: d4ea 1f90 9358 8ebf e8c5 f060 2542 c7bf
000002b0: a1f4 b2ed 98fc e63f 77b7 88d9 ad75 f3bf
000002c0: 2f75 be9d 1b8a ff3f 27bf 921c 35a8 2140
000002d0: 2d31 3d95 a5dc c43f aa38 6b8f 926a b0bf
000002e0: 641b 1451 2c0a b33f 45b5 9e5f 1625 b0bf
000002f0: 8471 88b5 01ef 823f b39e cd18 dcda a53f
00000300: 3cdd c344 ef96 68bf 8d9f 4a5d fa18 7cbf
00000310: df2e 57dc 1fa2 c6bf 3ed9 1637 9e83 96bf
00000320: 843d 09bc da5e 923f 2384 2fc3 d595 c33f
00000330: 6253 423a cf0e b3bf 90ab 5b60 37f0 d73f
00000340: d98b cdbb 8825 e1bf 6e9d c344 6b6c d7bf
00000350: 8987 9b70 0b76 d23f a52a ad23 beb3 d5bf
00000360: b54a 8526 25ea c73f 80c2 eff5 44c4 b4bf
00000370: c947 c21d cbfd babf 3263 50d2 55fb b63f
00000380: 073c 7b00 bfbb cabf 539e 0a0b a614 82bf
00000390: 65a4 2776 0f1d 9c3f 43d6 a009 f5c9 cfbf
000003a0: 1b2a 9799 e59c d23f c4dc 2cf7 b817 d53f
000003b0: ec9f 1917 ddf3 d1bf a286 a2ff 21e4 c83f
000003c0: e678 bfbb 1d6d d43f 0580 ce45 a858 d2bf
000003d0: 9fbe e078 9ba8 a3bf 97f1 d673 0aa7 d73f
000003e0: eabe 88db aed7 b4bf 8648 b913 a414 ac3f
000003f0: 4fdc 43fa 77af a3bf 9a04 210e e3d8 8dbf
00000400: c71e 9ef6 bda2 c03f 773a fe95 6634 a6bf
00000410: a2ad 6b00 e351 bb3f fc37 48fa 8961 c6bf
00000420: eafe 23eb e941 bf3f 2e41 31f0 f785 bf3f
00000430: fcef fc22 b0c8 a83f edc9 babe 2d93 b03f
00000440: b63a 8afe 97de 993f fbc7 b713 3108 b8bf
00000450: f1b5 a03d bd27 ae3f e40c c045 7487 84bf
00000460: e807 de31 1fc8 b4bf 3e19 b686 1c61 b2bf
00000470: e23e daf7 bc8c c4bf 7839 c3e8 f2c3 c33f
00000480: ed62 16d5 65c6 b3bf 7fea c48d 956a a83f
00000490: 3221 f603 1d13 bfbf 6f34 c0e5 0762 9bbf
000004a0: b822 0931 988d b8bf 3953 8617 52d5 a13f
000004b0: 6c2a 48e2 fec0 10bf 900f 3877 1ae3 cb3f
000004c0: ebe1 9456 55b8 debf e00f 6e40 bb6e 8bbf
000004d0: 0177 6a77 4aa4 aebf ba9a 3280 50a4 a83f
000004e0: 7948 f762 c481 b83f 6e18 5d04 b868 973f
000004f0: 6945 9834 f9be bbbf c548 6583 3559 a3bf
00000500: 96f0 f697 696d cd3f d19a 6b51 b53f b03f
00000510: 894c aadf a82d 3240
