hw1/best_weight.npy (npy, 1432 bytes, 1 tensors)

array f8 [163, 1]
00000000: 1ceb 935c d8da c2bf 2c8c a677 6220 de3f
00000010: 246e 8a59 f27c e73f 3815 a32e ba1e cbbf
00000020: efcf d8d0 fd1f eabf 713c 460b 0f0d bb3f
00000030: 5b0e 3872 aa3c c7bf 2320 284f 1c25 df3f
00000040: 761e 698b 91cd e4bf 2149 92e8 8320 cebf
00000050: 0638 8b9a 0152 d13f b214 3798 458a b7bf
00000060: 4f8a 84eb 5231 d1bf 9cbe ec3f 9c55 d43f
00000070: 2dfd 57a9 db51 a43f db34 b47c e164 cdbf
00000080: ddb1 aa98 479a b33f a7ce 8bad 825d 923f
00000090: 53b9 0954 82be e03f 4e28 849f d048 e23f
000000a0: f100 3c70 b92e d2bf 1eb6 f54c 2367 d13f
000000b0: bdb6 a95b d2df e1bf cf89 bd84 fd87 e6bf
000000c0: a56f 883a e6b4 ef3f 9c5e c651 54c6 fdbf
000000d0: 7d75 5733 2e5f 0540 d708 92c1 e466 c4bf
000000e0: d141 64ef 4173 e0bf 53ac 4845 7cda debf
000000f0: df13 a0b0 3c68 c93f f917 c7a1 d558 e23f
00000100: 380a 2ca9 0a47 d1bf e2ef 1383 ddc8 cbbf
00000110: d37b 25ac cbb4 d9bf 963d ca6c 6fc6 c13f
00000120: 3f70 823e 3953 b43f da6d 7e30 373d efbf
00000130: 1f24 8c43 1868 e5bf 12b6 e3f4 675e e33f
00000140: 7e53 b01a 50d6 e2bf 21d1 e8b2 6022 e7bf
00000150: 0ffe 2462 8769 da3f 75a5 a254 efdb e03f
00000160: b954 969f ae17 00c0 22f4 2242 b127 d6bf
00000170: afb5 165f 2e1c e4bf 18a6 d8f8 ea97 ecbf
00000180: 82f0 ae22 4630 e53f 7e67 7434 0785 ecbf
00000190: a814 5d3b b24f efbf f1a0 8cbc 11df e13f
000001a0: 2ba5 2ea0 4c99 e8bf 77f8 59fc 4748 ddbf
000001b0: 7ea3 da9a b26a e4bf 6e60 c6fb c413 fa3f
000001c0: 6635 e548 3727 0140 aa77 5cc2 f1e3 ffbf
000001d0: c5e4 779c 7fcf f93f ece7 9666 a575 0040
000001e0: 50e7 f793 d5d3 fdbf b106 a508 1292 f13f
000001f0: d66a 17ce f360 f53f 6439 796d 8060 d2bf
00000200: 044a 989a f429 953f d017 1e14 eb6d b53f
00000210: 257f cd7f 7c98 c1bf 64e2 3b14 662a aa3f
00000220: 4a74 5c84 5196 993f 4960 5fe7 60de e0bf
00000230: 44d3 1ee4 3f1e e7bf d151 4fb8 0654 f53f
00000240: 5870 9546 2b9d bbbf a059 79a7 9a25 b23f
00000250: ce6d dba2 e89e ba3f 414c 4f3d 509f c03f
00000260: 6ed5 de48 0919 be3f 1f23 0df3 1d0c afbf
00000270: 0e57 fe56 aefd d0bf 84ed 4a67 ddfa b8bf
00000280: 60ca f9f9 ffad d63f 7ed5 40af 973d b33f
00000290: 1729 df22 9898 b43f 6a76 d6f6 9346 b2bf
000002a0: 156b 54f6 de1e 96bf 028e 22ec e2e1 d1bf
000002b0: c596 2492 843f ec3f 1ecd 354e b254 f5bf
000002c0: f391 03a2 4c48 ff3f 8d9f 0c27 34b9 2140
000002d0: 3ad9 364c 1095 c53f c591 cb74 c47e b2bf
000002e0: 3702 32ee 966f b53f 338f 3465 253d b1bf
000002f0: 3cee d55c efb5 3dbf 97eb a8af d266 a73f
00000300: 5567 6200 cd09 6fbf 3a69 9baa 8eb2 8cbf
00000310: 2f94 5f4a 561d c5bf 94c1 fc2a ed50 c2bf
00000320: 9c27 53f9 32bb b13f 26f0 402c 5499 d83f
00000330: db17 4b7b 337c d9bf d6f8 61e4 fab0 e53f
00000340: c6f9 a44f 0c1e e8bf a8ab 1baf 3163 d8bf
00000350: 83e6 0ee6 077c e23f b314 6abd 5280 e1bf
00000360: cc4d 0caf c2ca ca3f bc3d b8df 9cee b5bf
00000370: 2413 83a1 1239 c5bf 163c a0dc 7708 c53f
00000380: 51e9 7b06 f0fd ccbf 6141 8cf2 ab16 b4bf
00000390: 9876 930a 9ed3 bf3f 457c ffae 5736 d6bf
000003a0: d0f0 9f70 f5f1 d63f 879e 5a77 be73 dd3f
000003b0: cf2a bc31 896c dbbf 5860 8754 e205 d53f
000003c0: f5a8 7767 c051 d93f 49f5 3af0 e831 e4bf
000003d0: ce09 4b35 4c26 6d3f f6f5 ecb9 0801 dc3f
000003e0: 81ee b5c3 2455 b73f 43f7 d7db 303e 99bf
000003f0: 047d f738 b15c a3bf 9aff 0fe0 2cb0 96bf
00000400: c8a9 8a27 398d bf3f 0fa2 e551 a183 acbf
00000410: f67e acf6 3a1e bc3f 3176 985c f83e c3bf
00000420: 41c1 1006 7289 ba3f 97a5 4b8f fea3 c03f
00000430: 7614 cf44 bc51 a53f 4028 3f9c 8d25 b13f
00000440: 01a0 1ad8 d203 a33f fe10 fa21 fbdb b7bf
00000450: aadd 2d63 6e14 ab3f bd52 ede5 66a4 96bf
00000460: f877 e30d 679b b4bf 994d dea9 0c81 abbf
00000470: f1f7 a213 4d44 c3bf 1385 08c8 9ead c13f
00000480: 7ebb 10bc 7a12 b5bf d90e dbd3 ba4d a73f
00000490: 4bcc d440 2966 c1bf 4f0f fec4 085e aabf
000004a0: b8fe 92c0 be1e b2bf 010b 031c e9c4 a13f
000004b0: f96e 5088 93d5 5b3f 5c20 181f 0351 cc3f
000004c0: a5a1 1088 d0c7 debf 1b4d 05a5 9d05 8cbf
000004d0: fd1b c73d f434 a4bf 48f5 b481 c858 b03f
000004e0: c04f 8a79 3621 b93f 9762 d1da bba9 3bbf
000004f0: d546 2bf1 301d bcbf b8cd 0cdf 1d9f 9abf
00000500: 83b2 e5fd 1d53 c93f 11dd ebfe 5f5b b43f
00000510: 7759 cab7 7d2e 3240
-0.1473036243476934 0.4707266014540348 0.734002280124916 -0.2118752219886717 -0.8164052084962331 0.10566801095250057 -0.1815388734540758 0.4866400502219241
-0.6500938151229565 -0.23536728721644187 0.2706302651612308 -0.09195361105146807 -0.26863549232272005 0.31772524111418377 0.039687027379836294 -0.2296411379724422
0.07657287099090788 0.017934839098372148 0.5232555047385098 0.5713885417510569 -0.28410182915105425 0.2719200374184271 -0.5585719862262618 -0.7041003792367578
0.9908324378225087 -1.8609202570277494 2.67147483931211 -0.1593900628250313 -0.5140695262544402 -0.4820852924919496 0.1984935629299391 0.5733440551491632
-0.2699610378332724 -0.21706742191588463 -0.4016598874204053 0.13886826335918262 0.0793948915110727 -0.9762226054330612 -0.6689568824086826 0.6052741797445285
-0.5886612435593717 -0.72294650023699 0.41269096931861865 0.5268475201639108 -2.0115635364296307 -0.3461726327767015 -0.6284400803758013 -0.893544660594844
0.6621428182038616 -0.8912387871271077 -0.9784785422749751 0.5584801371196858 -0.7687132957991357 -0.457536693989716 -0.6380246185773186 1.6298265299756411
2.1441484160374555 -1.9931504814371501 1.613158808903152 2.057444383125576 -1.86421735572954 1.098161729591464 1.3361700106094552 -0.28713999453329664
0.020667859969828242 0.08370846978331703 -0.13746601333968403 0.051104726762734726 0.024987481788333356 -0.5271458167071695 -0.7224425750233441 1.3330142211535654
-0.10786695931659673 0.07088629330369267 0.1039872548675966 0.12986186021461957 0.1175695231348379 -0.06063932029662155 -0.2654834603830388 -0.09757789394182309
0.3543701115769746 0.07515857723850236 0.08045340396271104 -0.07138943458854788 -0.021602138314032866 -0.2794120126729639 0.8827536444047942 -1.3331778578838747
1.9551512077970272 8.861726017275737 0.16861156197928456 -0.07224681712575094 0.0837339717418296 -0.06733926506836667 -0.0004533490544742257 0.04570635217938628
-0.00378885306697622 -0.014012446004404756 -0.16495779639731853 -0.1430946788691584 0.06926268183738532 0.3843584472813312 -0.3982056335483983 0.677854009685485
-0.7536679797702213 -0.38105432606124134 0.5776404851269067 -0.5469144534587457 0.20931275889652878 -0.08567219221025985 -0.16580422293022778 0.164320929267405
-0.22649956051447842 -0.07847094222620889 0.1243227744884855 -0.3470668038334604 0.358517990098119 0.4601894536558366 -0.42849950653969143 0.3284841371037195
0.3956147203849832 -0.6310925189970159 0.0035583008233015306 0.43756311566161743 0.0911429384049658 -0.024651301782788747 -0.03781656093974031 -0.0221564304119962
0.12324864592907325 -0.055691758391564254 0.10983627817449446 -0.15035919686572322 0.10365975044328925 0.13000471112108578 0.04163921680405107 0.0669792658292474
0.037138546829112336 -0.09320039348137141 0.05289025269206189 -0.02211151865351967 -0.08049625481677924 -0.053718944297681044 -0.15052188357179788 0.13811096923112895
-0.08231322375716663 0.04551490627411931 -0.1359302107390213 -0.0514986744374527 -0.07078163339155708 0.03470543353025413 0.0016988697764252476 0.22122229593537923
-0.48094571387857804 -0.01368258628705248 -0.03946650747416667 0.06385472456618857 0.09816303698818185 -0.00042210422799863464 -0.10982042205730676 -0.02599760698212858
0.19784903428389464 0.07951927159944129 18.181605803395964
