hw1/weight.npy (npy, 1432 bytes, 1 tensors)

array f8 [163, 1]
0.1614592642042531 0.6064750589075876 0.31769719711962485 -0.2853857463137544 -1.5609749393094932 1.4383590431071325 -0.36366159528903685 -0.04482816134803703
-0.4975068423927039 -0.09466764283187687 0.1527502030573428 -0.12352982008560719 -0.11262163000395674 0.1378479207689534 0.014552458197641293 -0.18222047482361556
0.09509322304903677 0.0567972574324889 0.4705176229401603 0.3398795742275304 -0.20948716987922875 0.31620139856892715 -0.45639730738306994 -0.6281655993438681
1.0095604277571921 -1.7120813337231446 2.3546104497882374 -0.2352428751186913 -0.6233967702123897 0.033038164087839036 -0.06866976949649005 0.5333801969888938
-0.23678234122883962 -0.2659737537416748 -0.39313951443117395 0.43139372625807015 -0.10931928880225204 0.2569034129252292 -0.9937849348347547 0.6028238593823665
-0.14155024562762136 -0.09628848927489625 0.21957265436484347 1.1274311602954028 -1.570404338773533 -0.33444558510430666 0.5436025069229641 -1.3423682962391204
0.7744884672826835 -0.43312065715737924 -0.4593661751663477 0.6713421377541741 -0.3610427473054954 0.22909484206940375 -0.04935619769450098 -0.5535370319689081
2.2113976987398987 -1.4925280155724585 0.49391742219166074 0.7670003190359888 -1.364419102066581 -0.255263978122358 0.5480471311380073 -0.09595672909170246
0.09200893906571221 -0.20820644576235836 0.1369947316970062 -0.12708355680411015 -0.30186510324241017 -0.044482724756512354 -0.8216502633632896 1.3690321293192604
0.029757451937331706 -0.10313775689657748 0.028410288762439465 0.030349164129514643 0.15788896764997215 0.03959786489865973 -0.1391922320821406 -0.08004144076226541
0.2331816088877405 -0.04477285045925825 0.05912467918083127 0.2310118284657588 -0.23096915485099373 -0.14597491655180114 1.1937567688070252 -1.3024089308771798
1.3642043102353565 9.077481587755841 0.08578435175967199 -0.05386956182221275 0.06828063023741753 -0.06810888478292129 -0.0011124080218362952 0.08636151360856319
-0.03347745298311492 -0.0401643505748043 -0.16613186869047133 0.07044183043310354 0.3527125428413295 -0.13900589612012149 -0.2280439351705875 0.1329942006033528
-0.252658973021485 -0.15093324509060443 0.15980528636142297 -0.32018467500077813 0.13277393326213976 -0.07742775887018649 -0.12945327085217334 -0.0038511796625849536
0.015454189836638174 -0.1800801556352454 0.08989513949426205 -0.24823629171122663 0.3875557687494715 0.18447754540712932 0.04577333079782398 0.3154679550040755
0.020138341249588677 -0.2541427795410916 -0.022980043674915726 0.17147973443950112 0.35419282842389543 -0.23026509292326428 -0.043075411184275304 -0.02737610879199887
0.07541493693010011 0.02273046166990996 -0.11943526433849687 -0.13875392118834876 0.08360223339276818 0.1591560468538133 0.028532216506816786 0.09069441747322084
0.03211306138682956 -0.10807796077841092 0.030465893674558344 0.17551447256068534 -0.0799614054849714 0.013578886741813696 -0.18422634622230563 0.18533812651863754
-0.05692879977507551 -0.07687230267366789 -0.14038709332976904 0.014332755450422766 0.010436522781801474 -0.05377041266997109 0.020415237329645005 0.22079987769663062
-0.3899972870306681 -0.0984307538624134 0.07406661072957399 0.12884549091563902 0.015376627713938685 0.045825268661064955 -0.08558077590220015 -0.04780792714684607
0.11345905926277854 -0.004722832994402491 18.202178400553983
00000000: e65d b279 b2aa c43f de20 fb61 3e68 e33f
00000010: c637 ea9f 2655 d43f 4d60 ca93 c243 d2bf
00000020: 945b a3db c0f9 f8bf d9d0 a0c5 8403 f73f
00000030: 6af7 a448 3b46 d7bf 81f8 db7d b7f3 a6bf
00000040: 9539 67f0 26d7 dfbf 3ecb f37d 233c b8bf
00000050: c558 4b93 518d c33f cf33 5979 a69f bfbf
00000060: d76f b069 c5d4 bcbf c21a c32b 00a5 c13f
00000070: 063f 48e0 adcd 8d3f efb6 0322 0053 c7bf
00000080: d71c 118b 0758 b83f e59d 59b6 8714 ad3f
00000090: b60e aef2 f51c de3f 73ae f841 96c0 d53f
000000a0: 930c c8bf 79d0 cabf 6864 73ca a43c d43f
000000b0: ee55 4c0d 9d35 ddbf d1ee 34be ee19 e4bf
000000c0: b9d8 c8d5 2827 f03f 70ed 8665 af64 fbbf
000000d0: 5b48 e500 3ed6 0240 b23a a043 701c cebf
000000e0: d2d0 8fc8 ddf2 e3bf a6e6 8dd4 60ea a03f
000000f0: a716 368e 5794 b1bf c0d7 cc58 7311 e13f
00000100: 1e91 ec3d e24e cebf eb8c 7ac7 b605 d1bf
00000110: 53d2 4fa3 3229 d9bf 5a97 7e6e f49b db3f
00000120: 5f47 3a52 59fc bbbf 3ca8 2f03 1b71 d03f
00000130: aced 4b10 16cd efbf ec76 2943 554a e33f
00000140: 2e0f db85 511e c2bf acbb 6ac8 5ca6 b8bf
00000150: 9ee4 cbec f41a cc3f 865c 9f41 f509 f23f
00000160: 1576 c84c 6020 f9bf 1c22 9474 8e67 d5bf
00000170: 713f a815 3165 e13f 568c b82d 577a f5bf
00000180: 2077 c309 9cc8 e83f 56a1 6db4 3fb8 dbbf
00000190: b698 ce62 4166 ddbf c596 c281 a27b e53f
000001a0: 65a5 080a 531b d7bf 6b68 2fd3 fa52 cd3f
000001b0: 65d4 e72d 3745 a9bf c2cd 2d4b 93b6 e1bf
000001c0: da4c d446 f1b0 0140 b6f5 730e 65e1 f7bf
000001d0: 3d38 cfd1 579c df3f 15ff c840 448b e83f
000001e0: 519e d61f a9d4 f5bf 0879 78b9 3e56 d0bf
000001f0: 8ef0 1c23 9a89 e13f adad 47c5 9e90 b8bf
00000200: 8315 3ad8 e58d b73f 24d0 ae41 82a6 cabf
00000210: b274 2e1a 0b89 c13f 1ea0 2a24 4644 c0bf
00000220: 4bb5 8e02 c251 d3bf ace3 2190 70c6 a6bf
00000230: caa4 3c7e f54a eabf 6a97 e93b 8ee7 f53f
00000240: a153 88cb bc78 9e3f 7285 da6c 3c67 babf
00000250: a41a 6b34 9617 9d3f 0bbc 96ed d913 9f3f
00000260: b758 3aa8 b435 c43f e75b 76dd 2b46 a43f
00000270: 6034 5312 0dd1 c1bf 020e 668a 987d b4bf
00000280: 07cb 191c e5d8 cd3f cd42 f190 77ec a6bf
00000290: fbb2 ef06 9745 ae3f c2f2 1fac cb91 cd3f
000002a0: ae21 3cb3 6590 cdbf 172b 505a 4eaf c2bf
000002b0: 167a 96b2 a019 f33f 492c 42bf aad6 f4bf
000002c0: 985e 18e6 c7d3 f53f 30e8 aaaa ab27 2240
000002d0: 65fc 5099 f6f5 b53f 2871 8d8c ca94 abbf
000002e0: 03ea d1e1 d67a b13f 86ad b578 956f b1bf
000002f0: 8fc7 b504 c739 52bf 53f3 94c4 c91b b63f
00000300: b584 6eeb f423 a1bf 5423 5ef8 6b90 a4bf
00000310: 17aa 6c1f cf43 c5bf cc05 fbcd 7908 b23f
00000320: df1e 19a1 d792 d63f 88bf e4f8 f1ca c1bf
00000330: bbed cd2d 8b30 cdbf 8514 1337 f405 c13f
00000340: 30c4 8a8a 902b d0bf cf8a c5d3 c751 c3bf
00000350: 9f3a 53e7 7f74 c43f 3fc2 f3dc e77d d4bf
00000360: 7ea3 8f7a bcfe c03f 0868 263c 4ed2 b3bf
00000370: decc 55be ec91 c0bf dc54 7556 828c 6fbf
00000380: 4bee 793f 72a6 8f3f 0155 8ed5 dd0c c7bf
00000390: 957c 322c 5e03 b73f 903e 4af1 34c6 cfbf
000003a0: 78ed 09b6 b6cd d83f 5b5b 2fd0 f59c c73f
000003b0: 517d 9c1d 9a6f a73f 9b6c 6b81 a030 d43f
000003c0: dd2c 4034 259f 943f 892f a913 e043 d0bf
000003d0: 0c7b 2da0 1488 97bf 0716 ac45 0cf3 c53f
000003e0: 56bc a365 18ab d63f 6d06 c299 5379 cdbf
000003f0: a5af 98f4 fa0d a6bf 1141 d08f 7b08 9cbf
00000400: 85a3 beaf 644e b33f 7621 fb75 a746 973f
00000410: 73ad 523a 4f93 bebf 550d d940 b0c2 c1bf
00000420: 4064 4bba f466 b53f 9650 19b0 395f c43f
00000430: 99de 1da3 8c37 9d3f 592d fad4 bf37 b73f
00000440: 6f9b dc88 1f71 a03f 682e f64a ffaa bbbf
00000450: 870e e783 7332 9f3f fdb8 cf1b 4277 c63f
00000460: a509 80c5 5978 b4bf 2a05 c753 3fcf 8b3f
00000470: 5d0e 0b9a ba94 c7bf 0fbb 0ce4 28b9 c73f
00000480: f50d 788a c525 adbf 2b9d f339 e7ad b3bf
00000490: b7e0 504b 34f8 c1bf 357a 5edf 7d5a 8d3f
000004a0: 681e 4160 be5f 853f f3e4 d1a7 cb87 abbf
000004b0: 5f01 af62 bbe7 943f 667b d59e 2b43 cc3f
000004c0: 15d4 542e b7f5 d8bf 207b c204 c232 b9bf
000004d0: 1020 cf86 07f6 b23f 4420 dc50 027e c03f
000004e0: 8daa 3b09 c87d 8f3f a099 75dc 6876 a73f
000004f0: a88f aa29 9fe8 b5bf 79a6 2bd7 477a a8bf
00000500: 87f3 f724 a70b bd3f 243c 16d4 3f58 73bf
00000510: 4256 b2f6 c133 3240
