hw2/SimpleBaseline_weight.npy (npy, 976 bytes, 1 tensors)

array f8 [106, 1]
000000 20 41 05 b4 3d c7 d4 3f db ae ea 29 93 f6 bc 3f
       0.324660707284254 0.11313743375165634
000010 2b 05 72 4c d9 b2 ea 3f d8 19 e5 26 f9 82 02 40
       0.8343321316789675 2.3139517820993483
000020 93 0b 77 3d 93 3c d3 3f ce 7b 15 13 bd 38 d5 3f
       0.30057221414988894 0.33158804763473604
000030 db d3 44 a1 e6 58 cb bf f8 07 3e 74 d1 06 e0 bf
       -0.21365054010826054 -0.5008322973592376
000040 04 82 e4 82 b8 cc f4 bf 0e 1d 75 e9 0f ec e2 bf
       -1.2999806511871848 -0.5913161811558056
000050 9d 38 79 48 63 be de bf 7d 18 9c 33 7e 5d eb bf
       -0.4803703506230564 -0.8551627166750816
000060 98 08 19 b5 cb 66 ed bf 01 84 81 d6 fa bf 08 c0
       -0.9187983071390304 -3.093740154101852
000070 8f dc 0e 88 dd 00 ea bf b5 9d 1c a0 6c 97 f7 bf
       -0.8126056344398352 -1.4744688276640379
000080 48 0b 4d e2 7e 3c f7 bf 6e ea 39 82 f2 e5 e6 bf
       -1.4522694435006134 -0.715569738720047
000090 08 69 83 c5 67 7d ff bf 07 fc 6a 79 55 53 02 c0
       -1.9681165423740499 -2.2906903730176995
0000a0 c0 4b ed 8b 5a c6 fa bf 11 82 87 ec 7d 79 f9 bf
       -1.6734261957069378 -1.5921611060549632
0000b0 77 6c 49 fc 6e fa c5 bf 35 fe fe 18 b1 d2 b4 3f
       -0.1717051250333019 0.08133990154510047
0000c0 b8 2a d8 13 e2 c7 e4 3f 72 b6 2e c1 fa 60 f8 3f
       0.6493997943483327 1.523676638239888
0000d0 7a ed 07 ea d6 e9 e2 bf 67 25 c5 1a 0a 53 ed 3f
       -0.5910448618810016 0.9163866541722826
0000e0 2a 0d ee 2e d0 89 07 c0 18 82 90 c0 72 fd f6 3f
       -2.9422916094205407 1.4368770143556784
0000f0 53 06 f1 68 46 43 cc bf 15 b1 64 a2 72 dc e1 bf
       -0.22080307125183882 -0.5581601306671781
000100 53 9a 50 70 22 81 fd 3f 30 64 94 e2 6e 8a e9 3f
       1.8440269839571968 0.7981485772498953
000110 0f 6c f6 3f 76 4d eb bf 12 da ae 79 32 5c f0 bf
       -0.8532057999867692 -1.0225090745203755
000120 06 93 e6 d9 ae 67 de bf 33 b9 6a 51 cf dc d3 bf
       -0.4750783088623368 -0.31035216284626016
000130 4c 1f 9c 74 08 6c d1 bf f6 f7 fc f6 c4 da 08 c0
       -0.2722188128250209 -3.1068209930372133
000140 11 af dd 53 9f 04 cd bf f6 8b 38 de d5 b8 dd 3f
       -0.226703563642666 0.464406458866676
000150 6b ce de de c5 3f f2 bf f5 9f 01 ca 72 3d f1 bf
       -1.140569563472037 -1.077502049529355
000160 64 45 7f d8 39 bd e1 bf eb f8 54 84 85 0d f3 bf
       -0.5543488720378886 -1.1908011597839117
000170 2c f0 25 1e c8 c1 03 c0 06 da 4e 7e f3 15 c9 3f
       -2.4696199755981265 0.19598239581473836
000180 43 4e c9 df bc ab b7 3f aa cf 59 79 38 02 c5 bf
       0.09246426070722528 -0.1641302673848462
000190 49 f1 ee bd af 17 d6 3f d5 52 a0 17 08 54 d2 bf
       0.3451957087343272 -0.28637888247730575
0001a0 f8 b0 eb 42 ef 11 ea bf cb 10 74 02 f3 7b be 3f
       -0.8146892840427702 0.11907881555459025
0001b0 0c 7c 0a c0 d0 d5 cd bf 04 cb 5a 17 cd a8 f5 bf
       -0.23308762909889003 -1.3537112152377526
0001c0 24 cb 7b 6e 40 a2 f3 bf b0 0a ad fe ee 70 e0 bf
       -1.2271122279896156 -0.5137858366145647
0001d0 b6 a4 2f f5 a8 82 f3 3f 41 75 10 b2 97 03 f0 bf
       1.2193994119245821 -1.0008770900379462
0001e0 b4 91 9c 3e 6e 98 da bf 84 f6 a1 04 ab 41 e5 bf
       -0.41555362810529606 -0.6642661180955689
0001f0 63 27 41 4a f8 66 f8 bf 87 d5 d6 d5 c2 2d e4 bf
       -1.5251391316000642 -0.6305860687777319
000200 c9 94 e6 17 77 d1 0d c0 f2 bf 8e b4 14 e4 cd 3f
       -3.7272779338114543 0.23352297607698308
000210 cc 42 e2 98 b1 be f3 bf 9e d9 b0 1b a6 8e f4 bf
       -1.234056088640659 -1.2848263818428687
000220 b3 d5 93 ea fd b5 c0 bf 7a 65 64 af ba 79 09 c0
       -0.13055395082453244 -3.184438104869227
000230 61 25 ea 32 69 7c fc bf 9d ed 7c 89 1c b7 f2 bf
       -1.7803737629750105 -1.1697049494385745
000240 21 b9 02 a2 6d 1a 95 bf 9d 9f 98 67 91 e7 f4 bf
       -0.020608628285736622 -1.3065351530767437
000250 97 9d 37 76 43 10 d8 3f 65 3f c3 c4 a2 b1 0a c0
       0.37599264664319193 -3.3367362377247667
000260 c1 56 60 a8 84 79 09 c0 2f 21 bd 67 9b b9 c1 3f
       -3.184335055770902 0.13847677770014274
000270 00 00 00 00 00 00 00 00 69 d8 44 f4 ab b8 f9 bf
       0.0 -1.60758586328077
000280 94 e7 0a c9 ec 53 ea bf 20 af 1d 07 67 af e5 bf
       -0.8227447439778524 -0.6776614321692911
000290 17 62 fb 41 dd a1 ef bf 2d 75 e7 d3 ca 98 e9 bf
       -0.9885088242254508 -0.7999014033081601
0002a0 3e da ad de 16 98 de 3f 59 c3 cd 0d 64 70 d4 bf
       0.47803279634482354 -0.31935979221366534
0002b0 27 c0 39 c4 bb fa fb bf 28 72 d2 12 29 9b 82 3f
       -1.7487142243444482 0.009085007559684291
0002c0 3a f8 e5 80 1c 1d 0f c0 05 78 0e cb 18 21 f1 bf
       -3.8892145223790324 -1.0705802852530735
0002d0 6f 6f 03 74 a7 33 fc bf 6d 4f ee 57 95 3f 0f c0
       -1.7626108676695045 -3.9060465688325423
0002e0 c5 8d a8 95 fc aa 06 c0 c6 0f ed 4a 20 fc e9 bf
       -2.8334895793975385 -0.8120271170996538
0002f0 b5 6e 2d 39 21 3d da 3f 9f ed 1e 1d 42 6d c0 bf
       0.4099810655950294 -0.12833429738917077
000300 62 9e 4b 1a b0 7b fc bf 07 55 77 b3 ca 95 0b c0
       -1.780197241512632 -3.4481405278007773
000310 a5 fb 73 12 03 3d ef bf e3 63 53 86 1f c1 e6 bf
       -0.9761977539454746 -0.7110746024655977
000320 29 79 99 1d 5d 7c f6 bf 0b 09 61 69 eb 34 e8 bf
       -1.4053622394781746 -0.7564599092659433
000330 c6 f0 c1 2f b0 df de bf cd 1c 9f 01 e3 b5 03 c0
       -0.4824028459913844 -2.4638118864710123
000340 35 b7 1a d4 ff 94 f8 3f 5a 23 44 7b 53 bc f0 bf
       1.5363767896009908 -1.0459780516705082
